…
 "\\lambda_d": "lambdad",
 "\\underline{\\chi}": "chi_a",
 "\\chi": "chi",
 "\\bar{z}": "zbar"
}
User Defined Parameters:
{
 "ah": 0.03,
 "sig": 0.1,
 "delta": 0.05,
 "kappa": 5,
 "phi": 0.5,
 "gamma": 5,
 "rho": 0.05000000074505806,
 "lambdad": 0.03,
 "zbar": 0.1,
 "chi_a": 1,
 "v": 2.5,
 "p": 0.01,
 "fl": 0.1,
 "fu": 0.2,
 "aebar": 0.15000000000000002
}

================================State Variables=================================
z: [0.01, 0.99]
ae: [0.1, 0.2]
t: [0.0, 1.0]

=====================================Agents=====================================
Agent Name: Je
Agent(
  (model): Sequential(
    (linear_0): Linear(in_features=3, out_features=128, bias=True)
    (activation_0): SiLU()
    (linear_1): Linear(in_features=128, out_features=128, bias=True)
    (activation_1): SiLU()
    (linear_2): Linear(in_features=128, out_features=128, bias=True)
    (activation_2): SiLU()
    (linear_3): Linear(in_features=128, out_features=128, bias=True)
    (activation_3): SiLU()
    (final_layer): Linear(in_features=128, out_features=1, bias=True)
    (positive_act): Softplus(beta=1.0, threshold=20.0)
  )
)
Num parameters: 50177
--------------------------------------------------------------------------------
Agent Name: Jh
Agent(
  (model): Sequential(
    (linear_0): Linear(in_features=3, out_features=128, bias=True)
    (activation_0): SiLU()
    (linear_1): Linear(in_features=128, out_features=128, bias=True)
    (activation_1): SiLU()
    (linear_2): Linear(in_features=128, out_features=128, bias=True)
    (activation_2): SiLU()
    (linear_3): Linear(in_features=128, out_features=128, bias=True)
    (activation_3): SiLU()
    (final_layer): Linear(in_features=128, out_features=1, bias=True)
    (positive_act): Softplus(beta=1.0, threshold=20.0)
  )
)
Num parameters: 50177
--------------------------------------------------------------------------------

================================Agent Conditions================================

==============================Endogenous Variables==============================
Endogenous Variable Name: q
EndogVar(
  (model): Sequential(
    (linear_0): Linear(in_features=3, out_features=128, bias=True)
    (activation_0): SiLU()
    (linear_1): Linear(in_features=128, out_features=128, bias=True)
    (activation_1): SiLU()
    (linear_2): Linear(in_features=128, out_features=128, bias=True)
    (activation_2): SiLU()
    (linear_3): Linear(in_features=128, out_features=128, bias=True)
    (activation_3): SiLU()
    (final_layer): Linear(in_features=128, out_features=1, bias=True)
    (positive_act): Softplus(beta=1.0, threshold=20.0)
  )
)
Num parameters: 50177
--------------------------------------------------------------------------------

========================Endogenous Variables Conditions=========================

===================================Equations====================================
eq_1: 
Raw input: $\iota &= \frac{q - 1}{\kappa}$
…
