…
 "\\rho": "rho",
 "\\gamma": "gamma",
 "\\psi": "psi",
 "\\tau": "tau",
 "\\delta": "delta",
 "\\phi": "phi"
}
User Defined Parameters:
{
 "a": 1,
 "sigma": 0.0125,
 "lbd": 1.38,
 "v_mean": 0.25,
 "sigv_mean": -0.17,
 "rho": 0.0665,
 "gamma": 5,
 "psi": 0.5,
 "tau": 1.15,
 "phi": 0.2,
 "A": 53.2,
 "B": -0.8668571428571438,
 "delta": 0.05
}

================================State Variables=================================
x: [0.05, 0.95]
v: [0.05, 0.95]
t: [0.0, 1.0]

=====================================Agents=====================================
Agent Name: xi
Agent(
  (model): Sequential(
    (linear_0): Linear(in_features=3, out_features=30, bias=True)
    (activation_0): Tanh()
    (linear_1): Linear(in_features=30, out_features=30, bias=True)
    (activation_1): Tanh()
    (linear_2): Linear(in_features=30, out_features=30, bias=True)
    (activation_2): Tanh()
    (linear_3): Linear(in_features=30, out_features=30, bias=True)
    (activation_3): Tanh()
    (final_layer): Linear(in_features=30, out_features=1, bias=True)
    (positive_act): Softplus(beta=1.0, threshold=20.0)
  )
)
Num parameters: 2941
--------------------------------------------------------------------------------
Agent Name: zeta
Agent(
  (model): Sequential(
    (linear_0): Linear(in_features=3, out_features=30, bias=True)
    (activation_0): Tanh()
    (linear_1): Linear(in_features=30, out_features=30, bias=True)
    (activation_1): Tanh()
    (linear_2): Linear(in_features=30, out_features=30, bias=True)
    (activation_2): Tanh()
    (linear_3): Linear(in_features=30, out_features=30, bias=True)
    (activation_3): Tanh()
    (final_layer): Linear(in_features=30, out_features=1, bias=True)
    (positive_act): Softplus(beta=1.0, threshold=20.0)
  )
)
Num parameters: 2941
--------------------------------------------------------------------------------

================================Agent Conditions================================

==============================Endogenous Variables==============================
Endogenous Variable Name: p
EndogVar(
  (model): Sequential(
    (linear_0): Linear(in_features=3, out_features=30, bias=True)
    (activation_0): Tanh()
    (linear_1): Linear(in_features=30, out_features=30, bias=True)
    (activation_1): Tanh()
    (linear_2): Linear(in_features=30, out_features=30, bias=True)
    (activation_2): Tanh()
    (linear_3): Linear(in_features=30, out_features=30, bias=True)
    (activation_3): Tanh()
    (final_layer): Linear(in_features=30, out_features=1, bias=True)
    (positive_act): Softplus(beta=1.0, threshold=20.0)
  )
)
Num parameters: 2941
--------------------------------------------------------------------------------
Endogenous Variable Name: r
EndogVar(
  (model): Sequential(
    (linear_0): Linear(in_features=3, out_features=30, bias=True)
    (activation_0): Tanh()
    (linear_1): Linear(in_features=30, out_features=30, bias=True)
    (activation_1): Tanh()
    (linear_2): Linear(in_features=30, out_features=30, bias=True)
    (activation_2): Tanh()
    (linear_3): Linear(in_features=30, out_features=30, bias=True)
    (activation_3): Tanh()
    (final_layer): Linear(in_features=30, out_features=1, bias=True)
  )
)
Num parameters: 2941
--------------------------------------------------------------------------------

========================Endogenous Variables Conditions=========================

===================================Equations====================================
eq_1: 
Raw input: $g &= \frac{1}{2*A} * (p - B) - \delta$
Parsed: g=(1)/(2*A) * (p - B) - delta
…
